trained_models/model_safetensors/topic_embeddings.safetensors (safetensors, 1624 bytes, 1 tensors)

topic_embeddings f4 [1, 384]
00000000: cf37 7c3c c5d0 ae3b 9b04 8bbc 6b4e 84bc
00000010: 13af 8cbc ebd7 dd3c 05e2 12bd ad3b 8a3c
00000020: 1f1d ff3b cb8d 833a b3b8 d8bc 7032 4c3d
00000030: 7809 553c 1cd6 2f3c 3cd7 afbc 79cd 833c
00000040: 47f6 ef3c 9572 42bc d5e9 3cbd 2399 c93b
00000050: d012 473d 6d0c cdbb 78c3 b63b 4b16 e9bb
00000060: d9a4 d1bc a1c3 af3b d5ff debb 0d2e 19bc
00000070: a521 aebc ccb0 cc3b 4d41 acbb 3372 b7bb
00000080: f852 2a3c 8102 f03c 3c2e 8ebc 7042 d93b
00000090: 00fe 5b3a a322 f3bb 3570 473c 4bf0 2b3c
000000a0: 2982 6f3c 8d35 21bd 5854 753c c5e5 ddbb
000000b0: 0310 1c3d 4dba 1e3d 58a4 e9bc b33a d33c
000000c0: 889b 07bd 189e 393c 2dcc b3bc dccf 813c
000000d0: c44a 28bc b259 0d3d d9ff ebbb c7f4 30bc
000000e0: 7a01 2a3b 25a9 3dbc 2bdf 4abd 35f2 1dbd
000000f0: 87e9 80bc 7c07 5abc d758 e13b e84a efbb
00000100: 3e64 02bb 0b65 7939 3138 f33a 5ca3 e73c
00000110: 9311 90bc 5409 70bc ad23 e3ba 1f23 1c3d
00000120: 71a4 9a3c fb2f 2b3d 95c3 ca3b 5c13 e3bc
00000130: d1e0 873c 677b a93c 5e35 143d eb43 a03b
00000140: 650d f73c 90a4 b2bc 33e6 733c adbe a93a
00000150: e958 813c 45c0 2ab9 6ff7 82bc 77b5 ac3c
00000160: 9121 763b fefa 1cbb 63a9 4fbc ffc5 36bd
00000170: 4339 f83b 1d1e 42bb ea6e 8cbc 609b 3bbb
00000180: 7fbb c6bc 1417 21bd b775 38bb eeef 8d3c
00000190: a119 ab3c 474d 103c 3c5d ed3c 918c 0dbd
000001a0: e972 a23c 73cc 9e3a d78d b33c 63f1 e43c
000001b0: a0b9 d839 35b5 64bc 84fe 1b3c 31dd 5dbc
000001c0: 7de4 b83c 75f3 f33c d1fb 083d cf6f dbbc
000001d0: 47af fe3c ac70 853c aee7 853b 6866 db3c
000001e0: 4e6d 82bc f893 603b 23ed d4bc b0bf 55bc
000001f0: e332 eb3b 3f5b 25bb 3b0d 83ba b6fd 2189
00000200: 1421 09bc ed73 3dbc 0158 f73c 90b6 a43c
00000210: 47be a8bb ba9b 8b3c 701a 4cbc a7a3 ee3b
00000220: 98d5 77bd 14df 6b3c 4735 02bd 546e 4abc
00000230: 5060 fc3c 9b02 233c 4e75 073d 79e8 273c
00000240: 27d1 b7bc 69dc 2fbc dbc8 b73c 63f4 dd3b
00000250: ad87 103d 6f6f 0a3b 25bc ca3a 6b3a 183a
00000260: 3da0 32bc dfdd 0abc 27ab 853c 8da8 473b
00000270: e5d8 e83c cdcd 5a3c c1e6 c1bc a4e4 1e3b
00000280: db5b 1bbd 7c16 aebb 95ed 4f3c 0d67 a0bc
00000290: e7c4 0dbc c038 203c cc02 493d 0f26 9fbc
000002a0: c5e9 0dbb cce2 8ebc 6f5d 25bc 8090 9d39
000002b0: d85b b5bc e341 2c3d 5082 4c3c 7fdc 173b
000002c0: 8714 3a3c df93 86bc bd77 e3ba fd8f 8cbc
000002d0: 4093 013a 3c59 2dbc 17d8 793c 1997 4abc
000002e0: 10aa 76bc ce61 123c f792 43bc 2d99 a83c
000002f0: 71d5 a8bc c1d8 973c bde0 80bc 84c0 6e3d
00000300: 9f1c 4cbc b524 2b3c 19fd eebc 6052 94b9
00000310: 71e1 e63c 480f 76bc 73b9 423c 11d3 fabc
00000320: add9 533c 23f7 06bc ecfa 2dbb 3f71 95bc
00000330: 7911 673d f031 afbb c1db cbbc 85b7 e73b
00000340: 1d25 23bd ed6b 9a3c 5ca9 443c e436 cdbc
00000350: db85 4fbb 7f84 16bd f244 07bd c3d4 32bd
00000360: d9d8 b13c 654e 01bd 4043 c139 b570 e1bc
00000370: 1b0d 9c3c 913c 693b 30a8 e9bc 6d2a de86
00000380: 1a2b 84bb 85cd 20bc ff52 0abc 8be2 a039
00000390: c345 d83c 633f 79bc 5f6e c7bc eb5e 763d
000003a0: 7d46 23bd 1f9a e3bc 5516 2abd 89c9 8fbc
000003b0: 1f1a 6b3d 9f64 b43c b566 25bb e739 0fbc
000003c0: 5066 613d 33c7 f6bc e458 363c ef41 5bbc
000003d0: 4577 933a c588 613b 0ca3 203b a4b8 6fbc
000003e0: e49e 29bc 5f1f 603c af60 89bc 7100 30bd
000003f0: 579f d23c a8db d73c 2bbb edba 0772 23bb
0.015394165 0.005334946 -0.01696997 -0.016150674 -0.017173326 0.027080497 -0.03586008 0.016874159
0.007785454 0.0010036764 -0.026455259 0.04985279 0.013002746 0.0107322 -0.021464936 0.016089188
0.029292239 -0.011868139 -0.046121437 0.0061522885 0.048601925 -0.006257585 0.005577501 -0.007113253
-0.0255913 0.005363897 -0.0068054 -0.009349358 -0.021256277 0.006246662 -0.005256808 -0.0055983304
0.010395758 0.029298069 -0.01735603 0.0066302344 0.0008392036 -0.0074199005 0.012172748 0.010494302
0.014618435 -0.03935771 0.014973722 -0.0067717754 0.038101207 0.03875189 -0.028520748 0.025784826
-0.03310731 0.011329196 -0.021947945 0.015846185 -0.010271732 0.03450937 -0.0072021303 -0.010800547
0.0025940822 -0.011575972 -0.049529236 -0.038561065 -0.015736355 -0.0133074485 0.0068770456 -0.0073026307
-0.0019896175 0.00023784132 0.0018556175 0.028276138 -0.017586505 -0.0146506615 -0.0017329358 0.03811943
0.01887724 0.041793805 0.006187866 -0.027719192 0.016586693 0.020688726 0.036183707 0.004890909
0.030157754 -0.021806985 0.014886427 0.0012950503 0.015789466 -0.0001628409 -0.015987126 0.021082623
0.0037556628 -0.0023953314 -0.012674662 -0.044622418 0.0075751855 -0.002962 -0.017142732 -0.0028626546
-0.024259327 -0.03932865 -0.0028146335 0.017326321 0.020886244 0.008807487 0.028975122 -0.034557883
0.019830184 0.0012115374 0.02191822 0.027947133 0.00041337032 -0.013959219 0.0095211305 -0.013541506
0.02256989 0.029779175 0.033443276 -0.026786713 0.031089438 0.016289078 0.0040864563 0.02678223
-0.015921261 0.0034267884 -0.025991982 -0.01304619 0.007177697 -0.002523139 -0.000999845 -1.9498964e-33
-0.008369703 -0.011563283 0.03019333 0.020106584 -0.005149636 0.01704203 -0.012457475 0.0072826925
-0.060506433 0.014396448 -0.03178909 -0.012355406 0.030807644 0.009949352 0.033070855 0.010248297
-0.022438599 -0.010733702 0.022434643 0.006773518 0.03528564 0.0021123549 0.0015467448 0.0005807045
-0.010902462 -0.00847575 0.016316963 0.0030465454 0.028423736 0.013354731 -0.023669602 0.0024245167
-0.037929397 -0.005312739 0.012690921 -0.019580388 -0.008652902 0.009779155 0.049074933 -0.019427327
-0.002165423 -0.01744213 -0.010093077 0.00030053034 -0.022138521 0.042055022 0.012482241 0.0023172197
0.011357433 -0.016427932 -0.001735441 -0.017158503 0.00049429014 -0.010580357 0.015249274 -0.012365126
-0.0150551945 0.008934451 -0.011936895 0.020580852 -0.02060959 0.018535974 -0.015732164 0.058289066
-0.012457996 0.010445763 -0.02917342 -0.00028290134 0.02818367 -0.015018292 0.011885035 -0.030618222
0.012930316 -0.008237633 -0.0026547266 -0.018242477 0.056413148 -0.005346529 -0.02488506 0.007071438
-0.039830316 0.018850291 0.012003269 -0.025050588 -0.0031665477 -0.036747452 -0.033024736 -0.043659937
0.021709846 -0.031568903 0.00036861934 -0.027519563 0.019049218 0.003558908 -0.02852258 -8.356946e-35
-0.0040334584 -0.009814625 -0.008442639 0.00030686366 0.026400452 -0.0152128665 -0.024344621 0.060149115
-0.039862145 -0.027783452 -0.041525204 -0.017552154 0.057397958 0.022020636 -0.002523822 -0.008741832
0.055029213 -0.030124282 0.011129592 -0.013382419 0.0011250755 0.0034413796 0.0024511246 -0.014631424
-0.010352824 0.013679354 -0.016769735 -0.04296917 0.025710745 0.026349857 -0.0018137445 -0.0024939792
